models/chord_gen.pt (torch, 123537 bytes, 28 tensors)

pos_encoder.pe f4 [1000, 1, 20]
0	0x00000000	0.0
1	0x3f800000	1.0
2	0x00000000	0.0
3	0x3f800000	1.0
4	0x00000000	0.0
5	0x3f800000	1.0
6	0x00000000	0.0
7	0x3f800000	1.0
8	0x00000000	0.0
9	0x3f800000	1.0
10	0x00000000	0.0
11	0x3f800000	1.0
12	0x00000000	0.0
13	0x3f800000	1.0
14	0x00000000	0.0
15	0x3f800000	1.0
16	0x00000000	0.0
17	0x3f800000	1.0
18	0x00000000	0.0
19	0x3f800000	1.0
20	0x3f576aa4	0.84147096
21	0x3f0a5140	0.5403023
22	0x3ec67d3d	0.38767424
23	0x3f6bfada	0.92179644
24	0x3e219d4e	0.15782663
25	0x3f7ccaa0	0.9874668
26	0x3d812265	0.06305388
27	0x3f7f7d97	0.9980101
28	0x3ccdc08a	0.025116224
29	0x3f7feb53	0.9996845
30	0x3c23d657	0.009999833
31	0x3f7ffcb9	0.99995
32	0x3b827390	0.0039810613
33	0x3f7fff7b	0.9999921
34	0x3acfbc28	0.0015848922
35	0x3f7fffeb	0.99999875
36	0x3a2566d4	0.0006309573
37	0x3f7ffffd	0.9999998
38	0x3983b1f5	0.00025118855
39	0x3f7fffff	0.99999994
40	0x3f68c7b7	0.9092974
41	0xbed51133	-0.41614684
42	0x3f36f776	0.71471345
43	0x3f330d04	0.69941735
44	0x3e9f96c5	0.31169716
45	0x3f733f18	0.9501815
46	0x3e00e09d	0.12585683
47	0x3f7df6e3	0.99204844
48	0x3d4dafec	0.0502166
49	0x3f7fad51	0.99873835
50	0x3ca3d43e	0.019998666
51	0x3f7ff2e5	0.9998
52	0x3c02734d	0.00796206
53	0x3f7ffdec	0.9999683
54	0x3b4fbc17	0.0031697804
55	0x3f7fffac	0.999995
56	0x3aa566d2	0.0012619144
57	0x3f7ffff3	0.9999992
58	0x3a03b1f5	0.0005023771
59	0x3f7ffffe	0.9999999
60	0x3e1081c3	0.14112
61	0xbf7d7026	-0.9899925
62	0x3f6e1248	0.92996645
63	0x3ebc3be5	0.36764446
64	0x3eea5ece	0.45775455
65	0x3f639aa8	0.8890786
66	0x3e40acb9	0.18815888
67	0x3f7b6d6f	0.9821386
68	0x3d9a2f2d	0.07528529
69	0x3f7f4603	0.99716204
70	0x3cf5b91f	0.0299955
71	0x3f7fe283	0.99955004
72	0x3c43ac49	0.011942931
73	0x3f7ffb53	0.99992865
74	0x3b9bccfc	0.0047546607
75	0x3f7fff42	0.9999887
76	0x3af81a36	0.001892871
77	0x3f7fffe2	0.9999982
78	0x3a458aef	0.00075356563
79	0x3f7ffffb	0.9999997
80	0xbf41bdcf	-0.7568025
81	0xbf275530	-0.6536436
82	0x3f7ff0ab	0.99976605
83	0xbcb132ce	-0.02163067
84	0x3f17a372	0.5923377
85	0x3f4e41b0	0.8056898
86	0x3e7fb48a	0.24971214
87	0x3f77e3d4	0.96832013
88	0x3dcd6d7d	0.10030649
89	0x3f7eb57a	0.9949566
90	0x3d23cbdb	0.039989334
91	0x3f7fcb94	0.9992001
92	0x3c82723e	0.015923616
93	0x3f7ff7b1	0.9998732
94	0x3bcfbbd3	0.006339529
95	0x3f7ffeaf	0.9999799
96	0x3b2566c9	0.0025238267
97	0x3f7fffcb	0.99999684
98	0x3a83b1f4	0.0010047541
99	0x3f7ffff8	0.9999995
100	0xbf757c10	-0.9589243
101	0x3e913c2c	0.2836622
102	0x3f69c728	0.91319513
103	0xbed0a6ce	-0.40752262
104	0x3f364a6e	0.7120732
105	0x3f33bd2b	0.7021052
106	0x3e9edbeb	0.3102716
107	0x3f735daa	0.95064795
108	0x3e00454f	0.12526439
109	0x3f7dfbcd	0.9921234
110	0x3d4cb6f4	0.049979165
111	0x3f7fae19	0.99875027
112	0x3ca30dcf	0.019904045
113	0x3f7ff304	0.9998019
114	0x3c01d544	0.007924382
115	0x3f7ffdf1	0.9999686
116	0x3b4ec074	0.0031547816
117	0x3f7fffad	0.99999505
118	0x3aa49e6f	0.0012559424
119	0x3f7ffff3	0.9999992
120	0xbe8f0f8c	-0.2794155
121	0x3f75cdb8	0.96017027
122	0x3f2f0d20	0.683794
123	0xbf3acbfd	-0.7296751
124	0x3f505fa7	0.81395954
125	0x3f14b746	0.58092153
126	0x3ebd3bb7	0.3695962
127	0x3f6ddf8f	0.9291925
128	0x3e19bf29	0.15014328
129	0x3f7d191a	0.98866427
130	0x3d759cd1	0.059964005
131	0x3f7f8a12	0.99820054
132	0x3cc3a8b7	0.02388416
133	0x3f7fed4e	0.99971473
134	0x3c1bcc88	0.009509213
135	0x3f7ffd09	0.99995476
136	0x3b781a19	0.0037857352
137	0x3f7fff88	0.99999285
138	0x3ac58aeb	0.0015071308
139	0x3f7fffed	0.99999887
140	0x3f283046	0.6569866
141	0x3f40ffbd	0.75390226
142	0x3eb1e3fd	0.34744254
143	0xbf700d31	-0.9377013
144	0x3f653bc0	0.89544296
145	0x3ee3ee26	0.4451763
146	0x3edadab9	0.42744997
147	0x3f676f1a	0.904039
148	0x3e33202d	0.17492743
149	0x3f7c0d86	0.98458135
150	0x3d8f3e32	0.06994285
151	0x3f7f5f81	0.997551
152	0x3ce442d4	0.027863897
153	0x3f7fe68e	0.99961174
154	0x3c35c3b4	0.011094023
155	0x3f7ffbf8	0.9999385
156	0x3b90b9db	0.004416687
157	0x3f7fff5c	0.9999902
158	0x3ae67765	0.001758319
159	0x3f7fffe6	0.99999845
160	0x3f7d4695	0.98935825
161	0xbe14fdf6	-0.14550003
162	0xbd312831	-0.04325122
163	0xbf7fc2ac	-0.9990642
164	0x3f7458dc	0.9544809
165	0x3e98b71d	0.29827204
166	0x3ef79ac2	0.48360258
167	0x3f6012db	0.8752877
168	0x3e4c6442	0.1996012
169	0x3f7ad93c	0.97987723
170	0x3da3aa50	0.07991469
171	0x3f7f2e66	0.99680173
172	0x3d026e02	0.031843193
173	0x3f7fdec4	0.9994929
174	0x3c4fbac1	0.012678803
175	0x3f7ffabb	0.9999196
176	0x3ba566a7	0.0050476375
177	0x3f7fff2a	0.99998724
178	0x3b03b1ef	0.002009507
179	0x3f7fffde	0.999998
180	0x3ed30132	0.4121185
181	0xbf693fd5	-0.91113025
182	0xbedab75c	-0.42718017
183	0xbf677775	-0.9041665
184	0x3f7d5600	0.9895935
185	0x3e135839	0.14389123
186	0x3f09af43	0.53783053
187	0x3f57d252	0.843053
188	0x3e658754	0.22414905
189	0x3f797c6e	0.9745549
190	0x3db8123e	0.089878544
191	0x3f7ef6c2	0.9959527
192	0x3d12ba12	0.03582198
193	0x3f7fd5f0	0.9993582
194	0x3c69b1ad	0.014263553
195	0x3f7ff955	0.99989825
196	0x3bba136e	0.0056785857
197	0x3f7ffef1	0.99998385
198	0x3b14282c	0.0022606952
199	0x3f7fffd5	0.99999744
200	0xbf0b44f8	-0.5440211
201	0xbf56cd64	-0.8390715
202	0xbf3e8a23	-0.7442953
203	0xbf2af843	-0.6678507
204	0x3f7ff97d	0.99990064
205	0xbc66f4ba	-0.014096433
206	0x3f1704e0	0.58991814
207	0x3f4eb5e6	0.80746305
208	0x3e7e8553	0.24855547
209	0x3f77f754	0.9686177
210	0x3dcc7576	0.099833414
211	0x3f7eb898	0.9950042
212	0x3d23058a	0.039800204
213	0x3f7fcc13	0.9992077
214	0x3c81d439	0.015848266
215	0x3f7ff7c5	0.9998744
216	0x3bcec030	0.0063095316
217	0x3f7ffeb2	0.9999801
218	0x3b249e67	0.002511883
219	0x3f7fffcb	0.99999684
220	0xbf7fff5c	-0.9999902
221	0x3b910572	0.004425698
222	0xbf71eb58	-0.9449973
223	0xbea776c9	-0.32707813
224	0x3f7c3265	0.98514396
225	0xbe2fda27	-0.17173062
226	0x3f23c09f	0.6396579
227	0x3f44c6e2	0.7686597
228	0x3e8bad1c	0.2728051
229	0x3f764a2d	0.96206933
230	0x3de0d372	0.1097783
231	0x3f7e73e8	0.9939561
232	0x3d335059	0.043777797
233	0x3f7fc12c	0.9990413
234	0x3c8ecf86	0.01743294
235	0x3f7ff60a	0.999848
236	0x3be36ced	0.006940475
237	0x3f7ffe6c	0.9999759
238	0x3b3514a2	0.0027630706
239	0x3f7fffc0	0.9999962
240	0xbf095cd8	-0.53657293
241	0x3f5806d0	0.84385395
242	0xbf7f760b	-0.99789494
243	0x3d84d0e1	0.06485153
244	0x3f7218f5	0.9456933
245	0xbea66e4d	-0.32506028
246	0x3f2fd589	0.68685204
247	0x3f3a0f63	0.7267973
248	0x3e9800fe	0.29688257
249	0x3f74753e	0.954914
250	0x3df52bac	0.119712204
251	0x3f7e28b5	0.99280864
252	0x3d439a6d	0.047754694
253	0x3f7fb53b	0.9988591
254	0x3c9bcaba	0.019017566
255	0x3f7ff426	0.99981916

transformer_encoder.layers.0.self_attn.in_proj_weight f4 [60, 20]
0	0x3e1af3cb	0.15132062
1	0xbe5948b1	-0.21219136
2	0xbe4b4c4f	-0.19853328
3	0x3e176009	0.14782728
4	0xbd2e52e1	-0.04255951
5	0x3e8b3d01	0.2719498
6	0xbd92b69b	-0.071637355
7	0xbd9ba634	-0.0760006
8	0xbc738f7f	-0.014865755
9	0x3dbf4214	0.09338775
10	0xbd232cea	-0.039837755
11	0x3d33b62c	0.043874905
12	0x3aa84df3	0.0012840613
13	0x3e2af3f8	0.16694629
14	0x3e325c36	0.17417988
15	0xbe170791	-0.1474898
16	0x3e52f580	0.20601463
17	0x3e2c3685	0.16817673
18	0xbe41646b	-0.18885963
19	0x3e01c5d6	0.12673125
20	0x3d44dfe7	0.048065092
21	0xbd844e2d	-0.06460223
22	0xbd71ae40	-0.05900407
23	0xbd9a0e28	-0.07522231
24	0xbbaf1e92	-0.0053442204
25	0xbe1591a3	-0.14606337
26	0xbe4c9cb9	-0.1998166
27	0x3bbc5e96	0.00574858
28	0xbd1ea276	-0.038729154
29	0x3e7c65be	0.24648187
30	0xbe7f30e2	-0.24920991
31	0x3ddc82b3	0.107671164
32	0xbcc7ab33	-0.024373626
33	0x3e1222ba	0.1427106
34	0x3e164bed	0.14677401
35	0xbdd83907	-0.10557752
36	0x3e6b14f0	0.22957206
37	0x3da7f54a	0.08201082
38	0x3e100a65	0.14066465
39	0xbd8e3127	-0.06942969
40	0xbcd59cfb	-0.02607583
41	0xbd89da0b	-0.067310415
42	0xbe4f7e14	-0.20262939
43	0xbc684d7e	-0.014178632
44	0xbe57932f	-0.2105224
45	0xbe00abda	-0.12565556
46	0x3dd333ca	0.10312612
47	0xbe13ed8b	-0.14446084
48	0xbe49493a	-0.1965684
49	0x3e25420f	0.1613848
50	0xbe3fc65a	-0.18728009
51	0xbd821260	-0.06351161
52	0x3e33cc0b	0.17558305
53	0x3e76eca5	0.2411371
54	0xbdcbd623	-0.09952953
55	0xbe4bfeb6	-0.19921383
56	0x3e87445c	0.26419342
57	0x3d532e50	0.05155784
58	0xbdc47133	-0.095919035
59	0x3cafa105	0.021439085
60	0xbe418bfa	-0.18901053
61	0x3d59c4e8	0.0531663
62	0xbd43a292	-0.04776246
63	0xbe70c2d4	-0.23511821
64	0x3e20d072	0.15704516
65	0x3d9f1d63	0.07769277
66	0x3e437ebc	0.19091314
67	0x3e8af3fc	0.2713927
68	0x3e8cee52	0.27525574
69	0xbe48e943	-0.19620232
70	0x3dadbb37	0.08482974
71	0xbe7f230c	-0.24915713
72	0xbe2effdf	-0.17089795
73	0xbdd1f743	-0.102522396
74	0x3e57e0d2	0.21081856
75	0x3e1831db	0.14862768
76	0x3c866395	0.016404906
77	0xbe319bd5	-0.17344601
78	0xbda18b35	-0.0788788
79	0x3d581316	0.052752577
80	0xbda48547	-0.08033233
81	0xbe871238	-0.26381087
82	0x3d9b7662	0.07590939
83	0x3bf42e04	0.0074517746
84	0x3d6e9259	0.058245037
85	0x3df35546	0.11881499
86	0x3e59227b	0.2120456
87	0x3daedab0	0.08537805
88	0xbe23dab6	-0.160014
89	0x3d5b7309	0.053576503
90	0x3d124faa	0.035720505
91	0xbd8ac550	-0.067759156
92	0x3e8573f7	0.26065037
93	0x3d456b69	0.048198137
94	0x3e8e0a94	0.27742445
95	0x3c8b5b56	0.017011326
96	0x3de0e469	0.10981066
97	0x3dc35e5a	0.095394805
98	0xbd0ec954	-0.03485997
99	0x3e8a2a8e	0.26985592
100	0x3cb19b0d	0.02168038
101	0x3e46bf96	0.19409022
102	0xbe420288	-0.18946278
103	0x3e84395a	0.25825006
104	0x3e041fbc	0.1290273
105	0xbe5a19c3	-0.2129889
106	0x3e59fcdf	0.21287869
107	0xbb84bed7	-0.00405107
108	0xbd9b7378	-0.07590383
109	0xbe18e409	-0.14930739
110	0x3cc66923	0.024220055
111	0x3d8fd7f1	0.070236094
112	0x3e260ae5	0.16215093
113	0xbe662df7	-0.22478472
114	0x3e43dfee	0.19128391
115	0xbb666eab	-0.0035161178
116	0xbe71a6df	-0.23598813
117	0xbc549848	-0.01297576
118	0xbe42f324	-0.19038063
119	0xbe807f05	-0.25096908
120	0x3e16e7d7	0.14736877
121	0xbda0f4f3	-0.0785922
122	0x3e81a236	0.2531907
123	0x3d87e1a6	0.06634836
124	0xbe4245a7	-0.18971883
125	0xbdcc533d	-0.09976814
126	0xbe489cba	-0.19591036
127	0x3e69d796	0.22836146
128	0xbe14c42e	-0.14527962
129	0x3e60b608	0.2194444
130	0xbdf3fa26	-0.119129464
131	0x3e30266e	0.1720216
132	0x3e41217e	0.18860433
133	0x3e3e5f1f	0.18590973
134	0x3e79a193	0.24378042
135	0x3e357fcc	0.17724532
136	0xbd249672	-0.04018254
137	0x3e87697b	0.26447663
138	0xbd4f8196	-0.050660692
139	0x3e859b80	0.260952
140	0x3ce2d8b7	0.027691228
141	0x3e4eb3c6	0.20185766
142	0x3ca06f24	0.019584246
143	0x3e60cf98	0.2195419
144	0x3d8ffdbb	0.07030817
145	0x3d4b21a9	0.049592648
146	0x3e0875ff	0.13326262
147	0x3e016c38	0.12638938
148	0xbdc4da3d	-0.09611938
149	0x3e03750a	0.12837616
150	0x3e12ab04	0.1432305
151	0x3e74bcec	0.23900193
152	0x3e6076de	0.21920344
153	0xbe678b35	-0.22611697
154	0x3d666677	0.05625006
155	0x3bb5f06e	0.005552343
156	0x3d7f062c	0.062261745
157	0x3e88fde8	0.26756215
158	0x3e4f39f8	0.20236957
159	0xbe172c2b	-0.14762942
160	0x3d30cf30	0.04316634
161	0xbde72951	-0.11287177
162	0x3add9d88	0.001690791
163	0xbc0b3676	-0.008496871
164	0xbc9c91b3	-0.019112444
165	0x3e69a9cb	0.22818677
166	0xbe7b4b7f	-0.24540518
167	0x3e34ff1a	0.17675439
168	0x3df1ec2b	0.118126236
169	0xbe3d7cd7	-0.18504654
170	0x3e7a18f7	0.24423586
171	0xbe746de5	-0.23870046
172	0xbe0bbaae	-0.13645431
173	0x3e778a40	0.24173832
174	0x3de542fb	0.11194416
175	0xbe426edf	-0.18987606
176	0x3db9b504	0.09067729
177	0x3d8e3dd0	0.069453835
178	0x3cad8ce5	0.021185348
179	0xbd3edcf8	-0.04659745
180	0xbe12f982	-0.14352992
181	0xbe1544f5	-0.14577086
182	0x3d0b4c37	0.03400823
183	0x3e5f6245	0.2181483
184	0xbd51a4da	-0.051182605
185	0x3dfdf70f	0.12400638
186	0x3e064458	0.13112009
187	0x3e7d1f79	0.24719037
188	0xbe13d9b7	-0.1443852
189	0x3e27e851	0.16397215
190	0x3e0a3f45	0.13500698
191	0x3dbffb01	0.09374047
192	0xbe2154ee	-0.15755054
193	0xbd8851cb	-0.06656226
194	0x3d713f6e	0.058898382
195	0x3e16bfc0	0.14721584
196	0xbe8f65fb	-0.28007492
197	0x3b58cc4f	0.0033080762
198	0xbcca020e	-0.024659183
199	0xbe12c320	-0.14332247
200	0xbde07213	-0.10959258
201	0x3e0ed0d1	0.13946845
202	0x3d87e235	0.066349424
203	0xbd03c6fe	-0.032172196
204	0xbd7d9163	-0.06190623
205	0x3da21fdb	0.07916232
206	0xbd9dbd34	-0.07702103
207	0xbcbfbc5a	-0.023405243
208	0x3e81f691	0.25383428
209	0x3e272379	0.16322125
210	0x3dad222d	0.08453784
211	0x3e8c73f9	0.2743223
212	0x3e0d79e0	0.13816023
213	0x3eb14963	0.34626302
214	0x3c82f0f4	0.015984036
215	0x3df2ca6d	0.11855016
216	0xbd16a4d3	-0.036778282
217	0xbd569a76	-0.0523934
218	0xbd617366	-0.055041693
219	0x3e7d9bd1	0.2476647
220	0xbd90551d	-0.07047484
221	0x3dd10aa5	0.102071084
222	0xbe515e1e	-0.20446059
223	0x3e4be2cf	0.1991074
224	0x3de680e7	0.11255055
225	0x3e4aafd4	0.19793636
226	0x3dabc8ab	0.08387884
227	0xbdd3b136	-0.10336535
228	0xbb280850	-0.002563972
229	0xbe77caf7	-0.24198519
230	0x3cda9e17	0.026686711
231	0x3e94c89a	0.29059297
232	0xbd3ddedd	-0.046355117
233	0x3d4b4cab	0.049633663
234	0xbda69928	-0.08134681
235	0x3da3109e	0.07962154
236	0xbdd553cd	-0.10416374
237	0x3df63ee7	0.120237164
238	0x3df51ffe	0.11968993
239	0xbe2ce6e8	-0.16884959
240	0xbe4f8736	-0.20266423
241	0xbca40010	-0.020019561
242	0x3e696126	0.22790965
243	0x3daac1cf	0.08337747
244	0x3e41d3b5	0.18928416
245	0x3e04f5a0	0.12984324
246	0xbe11196b	-0.14169852
247	0x3e3fddf5	0.18737014
248	0xbd84b6f5	-0.06480209
249	0xbdfb5c3c	-0.12273452
250	0x3e528ba4	0.20561081
251	0x3e883f0f	0.2661061
252	0xbe7a934c	-0.24470252
253	0x3e1054b3	0.1409481
254	0xbe14957e	-0.14510152
255	0x3e819c06	0.2531435

transformer_encoder.layers.0.self_attn.in_proj_bias f4 [60]
0	0x3b459d92	0.0030153734
1	0x3c36c13d	0.01115447
2	0x3c00a191	0.00785102
3	0x3bfc951c	0.007708205
4	0x3c2dc7ca	0.010606715
5	0x39df95d3	0.00042645502
6	0x39cf4866	0.00039536058
7	0xbb9ce092	-0.004787513
8	0xbaf886aa	-0.0018961031
9	0x3b514ebb	0.0031937796
10	0xbc45e121	-0.012077601
11	0x3c788681	0.015168787
12	0xbc637f69	-0.013885357
13	0x3ca2bd68	0.019865707
14	0xbc035557	-0.008015952
15	0x3b8feef7	0.0043925005
16	0xbcaa8a5d	-0.02081793
17	0x3ab0936a	0.0013471667
18	0x3bba1e7d	0.005679904
19	0xbc1fd07e	-0.009754298
20	0xaf11b0a6	-1.3250431e-10
21	0x2fcb868a	3.702108e-10
22	0xaf213d62	-1.4664672e-10
23	0xaefe8b23	-1.15752984e-10
24	0xaf3ec137	-1.7349043e-10
25	0x2df0997e	2.7353005e-11
26	0x2f715ba6	2.1951382e-10
27	0xaf9a25a8	-2.8039193e-10
28	0xaf8457f0	-2.4073143e-10
29	0x2e895955	6.245907e-11
30	0x302ecb3d	6.358965e-10
31	0xaeaacaa6	-7.7667026e-11
32	0xb058d7cf	-7.8887025e-10
33	0x2e99834c	6.9809575e-11
34	0xafc0a1e0	-3.5039616e-10
35	0xad60e920	-1.278469e-11
36	0x2cc3f9ab	5.569952e-12
37	0x2ed7b3b3	9.808989e-11
38	0xaea2deda	-7.4064935e-11
39	0xafe6d910	-4.1990988e-10
40	0x3c5ddd60	0.013541549
41	0xba8d4051	-0.0010776614
42	0x3c49d8f6	0.012319794
43	0x3ccd0724	0.025027819
44	0xbcbf6cef	-0.023367373
45	0xbc39a52e	-0.011330886
46	0x3c96b272	0.018395636
47	0x3c071fc7	0.008247322
48	0xbc12da05	-0.008963113
49	0xbbea137f	-0.0071434374
50	0x3c5322e0	0.012886733
51	0x3cbab301	0.022790434
52	0x3cd496f8	0.025950894
53	0xbc14a7b5	-0.009073188
54	0x3c97f54d	0.018549586
55	0xbcb40c07	-0.021978391
56	0x3cfc293c	0.03078138
57	0xbcc07b74	-0.023496367
58	0xbca0642d	-0.019579018
59	0x3af59ca6	0.0018738701

transformer_encoder.layers.0.self_attn.out_proj.weight f4 [20, 20]
0	0xbdddc2fd	-0.10828207
1	0x3dccb514	0.099954754
2	0x3e14b1be	0.14520928
3	0x3d884117	0.0665304
4	0xbdd4c051	-0.10388244
5	0x3dfa1ccc	0.12212524
6	0x3d9281e3	0.0715368
7	0x3e3b6425	0.18299921
8	0x3e78bd82	0.24291041
9	0x3db1d201	0.08682633
10	0x3e0a30c6	0.13495168
11	0x3d864038	0.065552175
12	0x3e2e7232	0.1703575
13	0xbe223ce7	-0.15843545
14	0xbdccd691	-0.10001863
15	0x3e0214ac	0.12703198
16	0x3c9981b9	0.018738614
17	0xbd91c04c	-0.07116756
18	0xbe408049	-0.18798937
19	0x3e2dfbf9	0.16990651
20	0x3d9c7cd0	0.076409936
21	0xbe1263b4	-0.14295846
22	0x3e19979b	0.14999239
23	0xbe5787fb	-0.21047966
24	0x3e2d3280	0.16913795
25	0xbdd55090	-0.10415757
26	0x3e0c4972	0.13699892
27	0x3c800425	0.015626976
28	0xbe11f123	-0.14252143
29	0x3e4531ce	0.1925728
30	0x3e13bd14	0.14427596
31	0x3e40d86b	0.18832557
32	0xbe44cdc0	-0.19219112
33	0xbda99785	-0.08280853
34	0x3dfa3f8d	0.122191526
35	0x3e418fcf	0.18902515
36	0x3d7f4361	0.062320117
37	0xbd97a76f	-0.07404982
38	0x3dc10d58	0.09426373
39	0x3d1bb3c1	0.038013224
40	0xbe1e7dec	-0.15477723
41	0x3e046278	0.12928188
42	0xbdf655d7	-0.120280914
43	0xbe290c53	-0.16508608
44	0x3db2623a	0.087101415
45	0x3dc44e3f	0.09585237
46	0xbdbb0b6e	-0.091330394
47	0xbdff61d9	-0.12469835
48	0xbd540b48	-0.05176857
49	0x3d32e92f	0.043679412
50	0xbd0aaad6	-0.033854328
51	0xbd957239	-0.07297177
52	0xbcdf96ce	-0.027293589
53	0xbcc5c8ec	-0.024143659
54	0xbdade088	-0.084900916
55	0xbdfb7a63	-0.12279203
56	0x3c71c4fc	0.014756437
57	0x3c28f9e7	0.010313488
58	0x3cb690a6	0.02228577
59	0x3e0a7b09	0.13523497
60	0xbd97e076	-0.074158594
61	0x3da2772c	0.079328865
62	0xbcfef765	-0.031123826
63	0xbb4efd89	-0.0031584224
64	0xbe5d79f0	-0.21628547
65	0xbde137c8	-0.109969676
66	0xbe3008c7	-0.17190848
67	0xbe26d8cf	-0.16293643
68	0x3d5c50c2	0.053787954
69	0x3e74bb36	0.2389954
70	0xbd4ebb32	-0.050471492
71	0x3e1145d0	0.14186788
72	0x3da14729	0.07874901
73	0x3d0b2353	0.033969235
74	0xbd4e2e0f	-0.050336894
75	0xbe204e9c	-0.15654987
76	0x3ddf732c	0.10910639
77	0xbe199186	-0.14996919
78	0xbd0b1ca4	-0.03396286
79	0x3e2de3c5	0.16981418
80	0x3e5d44be	0.21608254
81	0xbdb52f84	-0.088469535
82	0x3e3822f1	0.17982079
83	0xbe6d233b	-0.2315797
84	0x3d93018f	0.07178032
85	0x3ce711bf	0.028206704
86	0x3d5c2d5d	0.0537542
87	0x3e515fb3	0.20446663
88	0x3cc3bb3e	0.023892995
89	0xbe317844	-0.17331034
90	0xbe8ccd50	-0.2750039
91	0x3e5d0215	0.21582825
92	0xbea0d9c6	-0.31416148
93	0x3e449005	0.19195564
94	0x3d43ad8c	0.04777293
95	0xbe425725	-0.18978556
96	0xbcf7de14	-0.030257262
97	0xbddeb553	-0.108744286
98	0x3c2ba04e	0.010475231
99	0x3d9a4089	0.0753184
100	0x3dfc5c3a	0.12322278
101	0xbe207409	-0.15669264
102	0x3e435c21	0.19078113
103	0x3e474de1	0.19463302
104	0x3d905c87	0.07048898
105	0x3e29b774	0.16573888
106	0xbdff149b	-0.12455102
107	0xbdaee33b	-0.085394345
108	0x3e63a453	0.22230653
109	0x3de3b377	0.111182146
110	0x3dcd29f1	0.10017765
111	0xbd816a66	-0.06319122
112	0x3c69ee9b	0.014278079
113	0xbd09ce30	-0.0336439
114	0xbe2f777e	-0.17135426
115	0xbe53ec6a	-0.20695654
116	0x3dc3d0d7	0.095613174
117	0x3cd5ac6d	0.026083196
118	0xbd372f47	-0.04472282
119	0xbdd84bc7	-0.105613284
120	0xbdbdfdea	-0.09276946
121	0xbd29957c	-0.041402325
122	0xbdbbe66d	-0.091748096
123	0xbd6a3257	-0.057176914
124	0x3bd258df	0.0064192857
125	0xbdee7e83	-0.11645224
126	0xbe3efd2c	-0.18651265
127	0x3d6c22c4	0.057650343
128	0x3e28d1d8	0.16486299
129	0x3dd8a0e9	0.10577566
130	0xbe726590	-0.23671556
131	0x3da418c5	0.08012537
132	0x3e437cec	0.19090623
133	0x3de95746	0.11393599
134	0x3d1df6e1	0.03856552
135	0x3e6204a2	0.2207208
136	0xbd7a48e1	-0.06110466
137	0xbda798d4	-0.081834465
138	0xbdd949d5	-0.106097855
139	0x3e387e57	0.18016945
140	0xbe53cca1	-0.20683528
141	0xbcf10f43	-0.029426223
142	0x3dd3b747	0.10337692
143	0xbe04b13b	-0.12958233
144	0xbde0c4c5	-0.10975031
145	0xbc977ca6	-0.018492054
146	0x3df6e10f	0.12054645
147	0x3d4f18c8	0.050560743
148	0x3d882bdd	0.06648991
149	0x3e7440ca	0.2385284
150	0xbc89900b	-0.016792318
151	0x3e33130f	0.17487739
152	0x3e235f33	0.15954284
153	0xbe8042cf	-0.2505097
154	0x3e2f21f6	0.17102799
155	0x3d24d73f	0.040244337
156	0xbc568db9	-0.013095313
157	0xbde78ef7	-0.11306565
158	0xbe5b3119	-0.21405448
159	0xbc07f507	-0.008298165
160	0x3cb9a22a	0.022660334
161	0xbdec09d4	-0.11525312
162	0xbe25844c	-0.16163749
163	0xbd8c7541	-0.06858302
164	0xbdcd3fd6	-0.10021941
165	0xbe076c61	-0.13224937
166	0x3e5b87a1	0.21438457
167	0xbda63c8b	-0.081170164
168	0x3dbba790	0.091628194
169	0xbd368d33	-0.04456825
170	0x3e20494c	0.1565296
171	0xbe1135f5	-0.14180739
172	0x3e32fa64	0.17478329
173	0xbcb7c097	-0.022430701
174	0xbe0f7567	-0.14009629
175	0x3baf0405	0.0053410553
176	0x3d28ad9a	0.041181184
177	0xbda41f47	-0.08013778
178	0x3b6793bb	0.0035335857
179	0x3cc787e1	0.024356784
180	0x3dd1b29b	0.102391444
181	0x3e60fafd	0.21970744
182	0xbe6f482c	-0.23367375
183	0x3d7c199f	0.06154787
184	0xbe672990	-0.22574449
185	0x3d99af2d	0.07504115
186	0x3da9f1d9	0.08298082
187	0x3c8b1017	0.016975446
188	0x3e382d12	0.17985943
189	0xbd7f093d	-0.06226467
190	0x3de38411	0.11109174
191	0x3e0018af	0.12509416
192	0xbdf7da0f	-0.12102138
193	0x3e02c49a	0.1277031
194	0xbe08777a	-0.13326827
195	0xbe5c7528	-0.21529067
196	0xbe32eefd	-0.1747398
197	0x3dd0ff9f	0.10205006
198	0xbdd4733c	-0.10373542
199	0xbe1cbb59	-0.15305842
200	0x3d996cb6	0.07491438
201	0xbd45cb46	-0.04828956
202	0xbddcf3a4	-0.10788658
203	0xbdf695e2	-0.12040307
204	0xbda4066d	-0.08009038
205	0x3c5d786d	0.013517481
206	0xbe24cf93	-0.16094808
207	0xbdc8c0ee	-0.098024234
208	0xbe5c6294	-0.2152198
209	0x3e0006e7	0.12502633
210	0x3c035592	0.008016007
211	0xbb898cfc	-0.004197715
212	0x3d86aa01	0.065753944
213	0xbe16c33d	-0.14722915
214	0x3e2c575d	0.16830201
215	0x3c85f93d	0.016354198
216	0xbe3c2a90	-0.18375611
217	0x3e38208c	0.17981166
218	0x3b957c0c	0.0045619067
219	0xbde20578	-0.11036199
220	0xbe428de6	-0.18999442
221	0x3e1f5aeb	0.15562026
222	0xbe3e4aa6	-0.18583164
223	0xbe134b44	-0.1438418
224	0xbd95ea51	-0.07320083
225	0x3d9ef033	0.07760658
226	0xbe5fab4a	-0.21842685
227	0xbe67bce5	-0.22630651
228	0xbdc250ca	-0.094880655
229	0xbe062708	-0.13100827
230	0xbd454cfa	-0.048169114
231	0x3e553bef	0.20823644
232	0x3c2d83cd	0.010590506
233	0xbdb3fb98	-0.08788222
234	0x3cbf5f9a	0.023361016
235	0xbe3d23a3	-0.18470626
236	0x3dec84b3	0.11548748
237	0xbe01e86d	-0.1268632
238	0xbd4a7c6c	-0.049435064
239	0xbc1555ee	-0.0091147255
240	0xbcbb2841	-0.022846343
241	0xbd9db9d7	-0.07701462
242	0xbd552cb0	-0.05204457
243	0x3e3b58c4	0.1829558
244	0xbe0face9	-0.14030804
245	0xbe0b3ed1	-0.13598181
246	0x3dced6ac	0.10099539
247	0x3e7dd236	0.2478722
248	0xbdbe135d	-0.09281037
249	0xbe06cf3b	-0.1316499
250	0xbe331b9c	-0.17491001
251	0x3d36f1ec	0.04466431
252	0x3d3bd22e	0.04585474
253	0x3cdc9f9b	0.026931575
254	0x3e2fc5f7	0.17165361
255	0xbe3d1825	-0.18466242

transformer_encoder.layers.0.self_attn.out_proj.bias f4 [20]
0	0x3d2bc60b	0.041936915
1	0xbc4fa26b	-0.012673001
2	0xbd8e9efc	-0.069639176
3	0x3b926911	0.0044680913
4	0xbaaa1256	-0.0012975435
5	0x3b6b116e	0.0035868543
6	0xbd6d929c	-0.058001146
7	0x3d5c90b1	0.053848926
8	0x3c82b494	0.015955247
9	0xbc7fb46f	-0.015606984
10	0xbcf7060e	-0.030154254
11	0xbca1a8e0	-0.019733846
12	0x3d7c04f5	0.061528165
13	0xbd032946	-0.032021783
14	0x3c8d7536	0.017267805
15	0xbd536bb4	-0.051616386
16	0xbaa0b7e8	-0.001226184
17	0x3b720518	0.0036929306
18	0x3d6a03d1	0.057132546
19	0x3c4540e8	0.012039401

transformer_encoder.layers.0.linear1.weight f4 [50, 20]
0	0xbdf27d03	-0.1184025
1	0x3e45ec48	0.19328415
2	0xbe5a1881	-0.2129841
3	0x3d63d075	0.055618722
4	0xbe2ab93e	-0.16672227
5	0xbe2603e4	-0.16212422
6	0x3db4c8ed	0.08827386
7	0x3d951913	0.07280173
8	0x3e162e26	0.14666042
9	0x3e2a853f	0.16652392
10	0xbe2f05a3	-0.17091994
11	0xba02f8f0	-0.0004996201
12	0x3e2876df	0.16451596
13	0xbdbd08e1	-0.09230209
14	0xbdbfecaf	-0.09371316
15	0x3db5cfff	0.08877563
16	0x3e3fd351	0.18732955
17	0xbe5df5ec	-0.21675843
18	0xbd99ccd4	-0.07509771
19	0x3c281342	0.010258498
20	0xbd4f61ba	-0.05063031
21	0xbccd4309	-0.025056379
22	0xbceda04e	-0.029007103
23	0x3e1fad9f	0.15593575
24	0xbdec6dab	-0.11544355
25	0xbe341172	-0.1758478
26	0xbe2a2231	-0.16614605
27	0xbde63de3	-0.11242273
28	0xbdbe0bf2	-0.09279622
29	0x3d6806ef	0.056647237
30	0x3c8d5a4e	0.017254975
31	0x3cdc4985	0.026890526
32	0xbe1480ac	-0.1450221
33	0xbdcfafb6	-0.10140936
34	0x3e2da973	0.16959171
35	0xbe0914e8	-0.13386881
36	0x3da7e225	0.081974305
37	0x3e4271b2	0.18988684
38	0x3d527747	0.051383283
39	0x3e3bbec8	0.18334496
40	0x3cbbe0a8	0.022934273
41	0xbd13bccd	-0.036068726
42	0x3e1d1f94	0.15344077
43	0x3d56cb4e	0.05243998
44	0xbe440ac4	-0.19144732
45	0xbe568470	-0.20948958
46	0xbe4b6c9b	-0.19865648
47	0x3dfee61b	0.12446233
48	0xbcbbd183	-0.022927051
49	0xbe0de37d	-0.13856311
50	0xbe1cf81d	-0.15329023
51	0x3dad52d1	0.084630616
52	0xbd91c96c	-0.07118496
53	0x3ddc8751	0.10767997
54	0x3d447c5b	0.047970157
55	0xbd5514cb	-0.052021783
56	0xbc65e2ba	-0.014031107
57	0xbe043b8d	-0.12913342
58	0xbe454fbe	-0.192687
59	0x3e1c2ec2	0.15252212
60	0x3bfb9de2	0.007678733
61	0x3d80cf8f	0.06289589
62	0xbe030bdb	-0.12797491
63	0xbe50d640	-0.2039423
64	0x3e3f4f34	0.18682557
65	0x3ddd2725	0.10798482
66	0x3d9f8b5b	0.07790252
67	0x3d1581e0	0.03650081
68	0xbdaa3dbb	-0.083125554
69	0xbd05d853	-0.032677006
70	0x3c93bc39	0.018034087
71	0xbde2463c	-0.110485524
72	0xbe364390	-0.1779921
73	0x3e4f57eb	0.20248382
74	0x3e325b05	0.17417534
75	0xbd80cb76	-0.06288807
76	0x3daae210	0.08343899
77	0x3d6e5cad	0.05819385
78	0x3e263766	0.1623207
79	0xbd6934a6	-0.056934975
80	0x3d711651	0.058859173
81	0xbe2f16ff	-0.17098616
82	0xbdefca2a	-0.117084816
83	0xbd7eee30	-0.062238872
84	0xbd50afcb	-0.0509489
85	0x3d3b53c3	0.04573418
86	0xbda8b2fd	-0.08237264
87	0x3d6bcd22	0.057568677
88	0x3db24f1f	0.087064974
89	0xbcc54874	-0.0240824
90	0xbe2fd71d	-0.17171903
91	0x3e1018e6	0.14071998
92	0x3c3abf5d	0.011398164
93	0x3e419f30	0.18908381
94	0xbe0b18c0	-0.1358366
95	0x3e20ca9f	0.15702294
96	0xbdf037f6	-0.11729424
97	0x3e3f4ca8	0.18681586
98	0x3e1cbb29	0.15305771
99	0x3e5a1d5c	0.21300262
100	0x3e3a0263	0.18164973
101	0x3e5ae960	0.21378088
102	0xbe368231	-0.17823102
103	0x3e3e8abb	0.18607609
104	0xbdde195b	-0.1084468
105	0xbd2a34a3	-0.041554105
106	0xbd0d3bae	-0.034480743
107	0x3de2db90	0.110770345
108	0xbe4d46d8	-0.20046556
109	0x3b1d79da	0.0024028928
110	0x3d4dd634	0.05025311
111	0xbe02955d	-0.1275229
112	0x3dacfdd1	0.08446849
113	0xbd3e5909	-0.04647163
114	0xbca5be58	-0.020232365
115	0xbe38fd87	-0.18065463
116	0x3e534bed	0.20634432
117	0x3c6a3a88	0.0142961815
118	0x3e3c46c5	0.18386371
119	0x3e575f63	0.21032481
120	0xbdc828ab	-0.09773382
121	0xbbdb31ac	-0.006689271
122	0x3ddd5efe	0.10809134
123	0xbe042816	-0.12905917
124	0x3cf472cf	0.029839901
125	0xbe299503	-0.1656075
126	0xbe4c458d	-0.19948407
127	0x3dfd4d37	0.12368243
128	0xbda06d4e	-0.07833348
129	0x3e41304b	0.18866079
130	0xbd49ef8c	-0.049300715
131	0xbdc660a5	-0.09686402
132	0x3e03eb7f	0.12882803
133	0xbd262a87	-0.0405679
134	0xbe6794b7	-0.22615324
135	0xbe25ba25	-0.1618429
136	0x3dc226a4	0.09480026
137	0xbd8c5612	-0.06852354
138	0xbded6c6e	-0.11592947
139	0x3e5474b9	0.20747651
140	0x3de22b3e	0.11043404
141	0x3dac3bba	0.084098294
142	0x3e2b16d3	0.16707925
143	0x3cbb54e2	0.022867624
144	0xbba7f967	-0.0051261666
145	0x3d9b277b	0.0757589
146	0xbe40bfa0	-0.18823099
147	0x3e58a5fc	0.21157068
148	0x3e15bead	0.14623518
149	0xbe20d50e	-0.15706274
150	0x3de34c7f	0.11098575
151	0x3dc4a32b	0.09601434
152	0x3c48ff00	0.012267828
153	0xbdd8ce11	-0.10586179
154	0xbda06f7a	-0.078337625
155	0x3b8c79b4	0.004286969
156	0xbe7199d1	-0.23593833
157	0xb845619a	-4.705936e-05
158	0x3a1b38b5	0.0005921231
159	0xbe519f16	-0.20470843
160	0xbe18ec88	-0.1493398
161	0xbe2640d8	-0.16235673
162	0xbe3624b8	-0.17787445
163	0xbd4236df	-0.04741561
164	0x3e39d82b	0.18148868
165	0x3db24c68	0.087059796
166	0xbbfb62f4	-0.0076717082
167	0x3dea3d42	0.11437465
168	0x3d02da1f	0.031946298
169	0xbd6a1c9f	-0.0571562
170	0xbdfd606a	-0.12371905
171	0x3de94e9e	0.11391948
172	0x3e149329	0.14509262
173	0x3e158e7e	0.14605138
174	0xbe64f9f3	-0.22360973
175	0xbe272da3	-0.16326003
176	0xbdb233b5	-0.087012686
177	0xbe517b65	-0.20457228
178	0x3d0672b2	0.032824226
179	0xbda29c9b	-0.079400264
180	0xbe5edbcd	-0.21763535
181	0xbdd45312	-0.10367407
182	0x3d0f3170	0.034959257
183	0xbcb9e8eb	-0.022694072
184	0x3c151651	0.009099559
185	0x3d08256c	0.033238813
186	0xbe47550b	-0.19466035
187	0x3d33b1ef	0.043870863
188	0x3e3e485c	0.1858229
189	0xbe68b986	-0.22727022
190	0xbd580665	-0.052740473
191	0xbe4f3679	-0.20235623
192	0xbe3b20da	-0.1827425
193	0xbe23cf46	-0.15997037
194	0x3dce1d9c	0.10064241
195	0xbe331674	-0.17489034
196	0x3e40c42d	0.18824835
197	0xbd67b78f	-0.05657154
198	0xbe199236	-0.14997181
199	0xbe59829d	-0.21241231
200	0x3e5e87d9	0.2173151
201	0xbe37fcb1	-0.17967488
202	0x3e1c5fc0	0.152709
203	0x3cba4bdc	0.02274125
204	0x3df11115	0.11770836
205	0x3de2819c	0.11059877
206	0x3dbd19a5	0.09233407
207	0x3e30cd9c	0.17265934
208	0xbdb4e3b0	-0.088324904
209	0x3dd65502	0.10465433
210	0x3e21e9ab	0.15811794
211	0x3e399e98	0.18126905
212	0xbda242d8	-0.07922906
213	0xbe00a8e0	-0.1256442
214	0xbe208b02	-0.15678027
215	0x3e10ed08	0.1415292
216	0xbda3b7d6	-0.07994048
217	0xbe0e9993	-0.13925771
218	0xbe5bc510	-0.21461892
219	0x3d5d276f	0.053992685
220	0x3da94cf5	0.082666315
221	0xbcf01e42	-0.029311303
222	0x3db3f471	0.08786858
223	0x3d853f14	0.06506172
224	0x3dd899ed	0.10576234
225	0x3e4c91f4	0.19977552
226	0x3ddb9e4d	0.10723553
227	0x3c42ada9	0.011882224
228	0xbe53fd3c	-0.2070207
229	0x3e6b219e	0.22962043
230	0xbd9960c6	-0.07489161
231	0xbdb9c07e	-0.09069918
232	0xbe34edb2	-0.17668799
233	0x3d12fca0	0.035885453
234	0xbe323c49	-0.1740581
235	0x3d1e5e09	0.038663898
236	0x3e333805	0.17501839
237	0x3dfebe46	0.124386355
238	0x3dd340eb	0.103151165
239	0x3c252ae0	0.010081023
240	0xbdec551a	-0.11539669
241	0x3deb7d6c	0.11498532
242	0x3dcf3cc8	0.10119015
243	0xbdcaffbe	-0.0991206
244	0x3e36127d	0.1778049
245	0x3d16ab16	0.036784254
246	0x3dd30872	0.10304345
247	0xbde3f03f	-0.11129808
248	0xbe3b13a4	-0.18269211
249	0xbe4b28b2	-0.19839743
250	0x3c9ca78a	0.019122858
251	0x3da3b2c5	0.07993082
252	0x3e432717	0.1905788
253	0x3cf0a8c3	0.029377347
254	0xbcbdba1d	-0.023160035
255	0xbd1c7d9b	-0.038205724

transformer_encoder.layers.0.linear1.bias f4 [50]
0	0x3deb2919	0.11482448
1	0x3e10919f	0.1411805
2	0xbd672f01	-0.05644131
3	0xbc7a226c	-0.015266996
4	0xbc8185e1	-0.015810909
5	0xbda241a1	-0.07922674
6	0xbd995bb7	-0.07488196
7	0xbd7f0681	-0.062262062
8	0x3df8803a	0.12133832
9	0xbe41f2a0	-0.1894021
10	0xbe2443ec	-0.16041535
11	0xbdac397e	-0.08409403
12	0xbe2d29b0	-0.16910434
13	0x3ced76b4	0.028987266
14	0x3b75fd2c	0.0037534935
15	0x3c56e38a	0.013115773
16	0x3e2346cd	0.15944977
17	0xbd935ffb	-0.07196041
18	0x3e2aa587	0.16664706
19	0xbe3715ec	-0.17879456
20	0x3e0095b2	0.12557104
21	0x3d7616f7	0.060080495
22	0x3cc33e25	0.023833344
23	0xbd926f59	-0.07150144
24	0x3dcb89f6	0.09938423
25	0x3cba9539	0.022776233
26	0x3e46fd27	0.19432507
27	0xbdd61a80	-0.10454273
28	0x3de0e84f	0.10981809
29	0x3ce2c60e	0.02768233
30	0xbdd0cd75	-0.10195438
31	0xbdd25041	-0.102692135
32	0xbe1c666a	-0.15273443
33	0xbe2e2544	-0.17006403
34	0xbca85966	-0.020550441
35	0x3e435e90	0.19079041
36	0xbb9d1087	-0.00479323
37	0xbdb745c8	-0.089488566
38	0x3c05fdc8	0.008178182
39	0x3d7d0368	0.061770827
40	0x3d890167	0.066897206
41	0x3ddbfa36	0.10741083
42	0xbe0673f5	-0.13130172
43	0x3de06ec9	0.109586306
44	0xbd0f0c15	-0.03492363
45	0xbbc889dc	-0.0061199497
46	0x3d464993	0.04841001
47	0x3d482470	0.048862875
48	0xbdeaecc2	-0.11470939
49	0x3dc7b117	0.09750574

transformer_encoder.layers.0.linear2.weight f4 [20, 50]
0	0xbe028af5	-0.1274832
1	0xba45e0b0	-0.00075484347
2	0xbd354a27	-0.04426017
3	0xbd922934	-0.07136765
4	0x3ccf3ce8	0.025297597
5	0x3c62ed5b	0.013850535
6	0x3d928576	0.07154362
7	0xbccdbfd7	-0.02511589
8	0x3c9c1698	0.019053742
9	0xbd997b1a	-0.07494183
10	0xbd1e66da	-0.038672306
11	0xbd777bf0	-0.06042093
12	0xbdecc8ef	-0.115617625
13	0xbdae1b6c	-0.08501324
14	0x3bdaae60	0.006673619
15	0xbc191c7e	-0.009345172
16	0xbdd5abda	-0.10433169
17	0xbc3da45a	-0.011574829
18	0x3bc66d87	0.006055537
19	0xbc159031	-0.009128616
20	0x3ca94e90	0.020667344
21	0xbd3c641e	-0.045993917
22	0x3d949ad1	0.072560914
23	0x3d9d0f84	0.07668975
24	0x3d4f2b2e	0.05057829
25	0xbe03ead5	-0.1288255
26	0xbcd1dc15	-0.025617639
27	0x3da399de	0.07988332
28	0x3cb7a651	0.022418173
29	0x3dec7fe8	0.11547834
30	0xbcdecdec	-0.0271978
31	0xbe2e42d2	-0.17017677
32	0x3d75e3ae	0.060031585
33	0x3d964880	0.07338047
34	0x3dd1c441	0.102425106
35	0x3d4edd83	0.05050422
36	0xbdcecca9	-0.100976296
37	0xbdac2410	-0.08405316
38	0xbcdc3a75	-0.026883343
39	0x3d7c07cb	0.06153087
40	0xbd59b95c	-0.053155288
41	0xbd513dad	-0.05108421
42	0xbd8d01ef	-0.068851344
43	0xbc5a4d83	-0.013324144
44	0xbc508d7e	-0.012729047
45	0x3d284587	0.04108193
46	0x3cbe3587	0.023218883
47	0xbdd4893a	-0.103777364
48	0xbc4370fe	-0.011928795
49	0x3bcdff08	0.0062865056
50	0xbd8a08cd	-0.0673996
51	0xbd4d8143	-0.0501721
52	0xba689fb8	-0.00088738976
53	0x3d5e481b	0.054267984
54	0xbdc4d3c7	-0.09610706
55	0x3b8b45ef	0.00425028
56	0xbba1069a	-0.004914117
57	0x3debbae7	0.11510258
58	0x3dcbcce7	0.099511914
59	0x3d8592a2	0.065221086
60	0x3da5c5f4	0.08094397
61	0xbe22d8eb	-0.1590306
62	0x3db5688c	0.08857831
63	0xbdaeecce	-0.08541261
64	0x3ddacd98	0.10683745
65	0xbdd31638	-0.10306972
66	0xbd11c05a	-0.03558383
67	0x3d296117	0.041352358
68	0x3d7297a0	0.059226632
69	0xbd08702c	-0.0333101
70	0xbdb28d02	-0.08718301
71	0xbdeb2bb9	-0.11482949
72	0x3de04c84	0.10952094
73	0x3d37661a	0.044775106
74	0x3d6bf547	0.05760696
75	0xbe0284b3	-0.12745933
76	0x3ce96f80	0.02849555
77	0xbd804952	-0.06263985
78	0x3e0ff81f	0.14059494
79	0xbce46907	-0.027882112
80	0xbb64a369	-0.003488744
81	0xbd045b28	-0.032313496
82	0xbdcad527	-0.09903937
83	0xbd1ddbc4	-0.038539663
84	0x3cc0204c	0.0234529
85	0xbbdfefb9	-0.006833997
86	0xbd842f73	-0.06454363
87	0x3ccba042	0.02485669
88	0xbdded4c2	-0.10880424
89	0x3d3fc8a9	0.046822224
90	0xbe12e67c	-0.14345735
91	0x3b4a76a7	0.0030893476
92	0xbd851c96	-0.06499593
93	0x3dc5d86a	0.09660418
94	0xbd831a91	-0.064015515
95	0x3e0c5048	0.137025
96	0xbd560e28	-0.052259594
97	0x3d5d49a2	0.0540253
98	0x3cec9d95	0.028883735
99	0xbd59dcb7	-0.053189006
100	0xbd201504	-0.039082542
101	0xbdcc5caf	-0.099786155
102	0x3d3080c5	0.043091554
103	0x3d628f3a	0.055312373
104	0x3d2aefc6	0.041732572
105	0xbc924084	-0.01785303
106	0x3d932798	0.07185286
107	0x3e03314a	0.12811771
108	0x3d2d693e	0.042336695
109	0xbdfdf65b	-0.12400504
110	0x3c29789a	0.010343695
111	0x3e0807c6	0.13284215
112	0xbd32358b	-0.043508094
113	0x3e01bda9	0.12670006
114	0x3dc02c50	0.09383452
115	0xbd10eeef	-0.035384115
116	0xbce26132	-0.027634237
117	0x3d9b90fe	0.075960144
118	0xbbe13c85	-0.0068736696
119	0xbdb92406	-0.09040074
120	0x3d6e62dd	0.058199752
121	0x3d73a93c	0.059487566
122	0x3bc78331	0.0060886373
123	0x3d37c9f0	0.044870317
124	0xbc992865	-0.01869602
125	0x3e157bab	0.14597957
126	0xbdaf5e13	-0.08562865
127	0x3d1b3641	0.037893537
128	0x3d230e10	0.039808333
129	0x3d7dde8a	0.061979808
130	0xbd98aa13	-0.07454314
131	0xbd35874e	-0.04431849
132	0xbe024b6c	-0.12724084
133	0xbcde7e9a	-0.027159978
134	0xbd46ba05	-0.048517246
135	0x3d4a9526	0.049458645
136	0x3c62e56c	0.013848644
137	0xbc24f0b0	-0.01006715
138	0x3da7be51	0.08190597
139	0xbe01c7bf	-0.12673853
140	0xbdb63e96	-0.08898656
141	0x3d0f641b	0.035007577
142	0xbd74b89d	-0.059746373
143	0x3bbffb00	0.005858779
144	0x3b99ece9	0.0046974313
145	0x3cef7c3a	0.02923404
146	0x3d15b3e1	0.0365485
147	0xbdf83902	-0.121202484
148	0xbe16f8b2	-0.14743307
149	0xbddd4fb8	-0.10806221
150	0x3ddc2f17	0.10751169
151	0xbe1a42f7	-0.15064608
152	0x3d795780	0.060874462
153	0x3d3deca2	0.04636825
154	0xbd4d26dd	-0.05008589
155	0xbddc35e8	-0.10752469
156	0x3e05e4ed	0.1307561
157	0xbdd020c1	-0.10162497
158	0x3d2dc3bf	0.042423006
159	0xbdab0a1c	-0.083515376
160	0x3d414c59	0.04719195
161	0xbde2bfa2	-0.11071707
162	0xbd85db1a	-0.06535931
163	0x3d2e68c4	0.04258038
164	0xbdc5eb3b	-0.09664007
165	0xbe089a12	-0.13340023
166	0x3cd70e1f	0.02625185
167	0x3e0c6855	0.13711675
168	0x3dc2fd0d	0.09520922
169	0x3cb388ff	0.02191591
170	0x3d4f6272	0.050630994
171	0xbcfc9f9c	-0.030837826
172	0xbdd2b7e4	-0.102889806
173	0xbd8a84b5	-0.06763593
174	0x3df713ff	0.12064361
175	0x3d7a5ffc	0.061126694
176	0xbd88c2f4	-0.06677809
177	0xbe27fdc7	-0.16405402
178	0x3da43f92	0.080199376
179	0xbce74636	-0.028231721
180	0x3cdb7d7c	0.026793234
181	0x3c4c3671	0.012464152
182	0x3d14e6d8	0.036352962
183	0x3da6d537	0.08146136
184	0x3df4a1d6	0.1194493
185	0x3dd4bb82	0.10387327
186	0x3c4292f7	0.011875859
187	0x3ce8f7cf	0.028438477
188	0xbd140e32	-0.03614635
189	0xbb0cda53	-0.0021492436
190	0x3dcd6d3d	0.10030601
191	0xbe1d8161	-0.15381385
192	0x3d43c868	0.047798544
193	0x3d874f23	0.06606891
194	0x3db36541	0.08759547
195	0xbd67ad27	-0.056561615
196	0x3c96af03	0.018393999
197	0xbbeb29b1	-0.007176601
198	0xbe1d6c40	-0.15373325
199	0xbda2b83e	-0.07945298
200	0x3cb55f6b	0.022140225
201	0x3dacabfa	0.084312394
202	0xbcd74e32	-0.026282404
203	0x3b422ad5	0.002962758
204	0x3da5a993	0.08088984
205	0xbcf0079f	-0.029300509
206	0xbdd12d22	-0.102136865
207	0x3d8b9ed7	0.06817406
208	0x3d95efed	0.07321153
209	0xbe1a7de0	-0.1508708
210	0xbdee7180	-0.11642742
211	0x3d1f0523	0.038823258
212	0xbdedf8a9	-0.11619694
213	0xbd0f995d	-0.035058368
214	0xbd1d4abe	-0.038401358
215	0x3d5e9ea3	0.054350507
216	0x3d07e0ac	0.03317325
217	0xbe025547	-0.12727843
218	0xbd29737d	-0.041369904
219	0x3da33342	0.07968761
220	0xbe09e9fd	-0.13468166
221	0x3d908749	0.070570536
222	0xbcb86ab4	-0.022511818
223	0x3e0c1a04	0.13681799
224	0x3d8ec3d5	0.06970946
225	0xbc07dacc	-0.008291911
226	0xbd57c03f	-0.052673575
227	0xbbebb671	-0.0071933796
228	0xbba37ae6	-0.004989016
229	0xbcf00966	-0.029301357
230	0xbd85990c	-0.06523332
231	0x3d1cd5a0	0.038289666
232	0xbd8a42b6	-0.06751005
233	0xbdc918f2	-0.09819211
234	0xbd20723e	-0.03917145
235	0x3d2e0ba8	0.042491585
236	0x3d5a283a	0.05326102
237	0xbd3a4db1	-0.04548425
238	0x3daa8e35	0.08327905
239	0x3c497d49	0.012297937
240	0x3e032e9c	0.12810749
241	0xbd961370	-0.07327926
242	0x3cbc5c47	0.02299322
243	0xbda2c773	-0.07948198
244	0xbda2d27a	-0.079503015
245	0x3ded0a33	0.11574211
246	0xbcbf1b18	-0.023328349
247	0x3d209f66	0.039214514
248	0x3dc54d61	0.096338995
249	0xbd531319	-0.051531885
250	0x3e1a4732	0.15066221
251	0x3c8c1b39	0.017102825
252	0x3dd204b4	0.10254803
253	0x3da91f5e	0.08257936
254	0x3d3832fa	0.04497049
255	0xbc0992e3	-0.008396837

transformer_encoder.layers.0.linear2.bias f4 [20]
0	0x3dd18801	0.10231019
1	0xbe280bd4	-0.16410762
2	0x3df8f2ad	0.12155662
3	0x3d648fe3	0.055801284
4	0x3d047dfc	0.03234671
5	0xbde6f86b	-0.11277851
6	0xbdade484	-0.084908515
7	0xbd9df7fa	-0.077133134
8	0x3e001811	0.1250918
9	0xbd47553a	-0.048665263
10	0x3aa86fd5	0.0012850711
11	0xbd5fbb9c	-0.054622278
12	0x3cda6aeb	0.02666231
13	0x3d8ebc5d	0.06969521
14	0x3d11b160	0.03556955
15	0x3e1f606e	0.15564129
16	0xbdb16697	-0.086621456
17	0xbe095d75	-0.13414557
18	0xbdc25258	-0.09488362
19	0x3dc6dedd	0.097104765

transformer_encoder.layers.0.norm1.weight f4 [20]
0	0x3f62f3b4	0.8865311
1	0x3f67009b	0.902353
2	0x3f6f30ae	0.93433654
3	0x3f6cc475	0.9248727
4	0x3f5a5587	0.85286754
5	0x3f67af0d	0.9050148
6	0x3f6a42f7	0.9150843
7	0x3f6ee2b4	0.9331467
8	0x3f8039a2	1.0017588
9	0x3f68be8a	0.9091574
10	0x3f821e50	1.0165501
11	0x3f62faa5	0.88663703
12	0x3f881131	1.0630246
13	0x3f904293	1.1270317
14	0x3f93212e	1.1494501
15	0x3f9184a8	1.1368608
16	0x3f8f2fd3	1.118647
17	0x3f8766ba	1.0578225
18	0x3f9165df	1.1359214
19	0x3f86e670	1.0539074

transformer_encoder.layers.0.norm1.bias f4 [20]
0	0xbca897ae	-0.020580139
1	0xbd83b202	-0.06430437
2	0x3d15675c	0.036475524
3	0xbc113fb0	-0.008865282
4	0x3b1b5769	0.0023703224
5	0x3c1401c2	0.009033622
6	0xbc94790f	-0.018124131
7	0xbda3cd09	-0.07998092
8	0x3c31fcb4	0.010863472
9	0x3c5a1d93	0.013312715
10	0x3d2ff6c2	0.042959936
11	0xbd3a75b0	-0.04552239
12	0x3ac5e9ec	0.0015099621
13	0x3dd2a7c3	0.10285904
14	0x3d19b8cb	0.037529748
15	0x3cadd79b	0.021220973
16	0x3c8b43d6	0.01700012
17	0xbcb7aac8	-0.022420302
18	0x3d315332	0.04329223
19	0xbcaa91f4	-0.020821549

transformer_encoder.layers.0.norm2.weight f4 [20]
0	0x3f66254d	0.89900666
1	0x3f6dcced	0.92890817
2	0x3f78b83f	0.9715614
3	0x3f747f53	0.9550678
4	0x3f673b7c	0.9032514
5	0x3f6a5282	0.91532147
6	0x3f77ac38	0.9674716
7	0x3f64eaeb	0.89420956
8	0x3f7b4de7	0.98165745
9	0x3f66fb73	0.9022743
10	0x3f87904a	1.0590909
11	0x3f69bfae	0.91308105
12	0x3f845212	1.0337546
13	0x3f85c6f5	1.0451342
14	0x3f883b01	1.0643007
15	0x3f8c9e6e	1.0985849
16	0x3f90d4aa	1.13149
17	0x3f87031d	1.0547825
18	0x3f8c448e	1.0958421
19	0x3f8a5f3e	1.0810316

transformer_encoder.layers.0.norm2.bias f4 [20]
0	0xbcabb548	-0.020960465
1	0xbdc0d2b0	-0.094151855
2	0x3cd7c784	0.026340254
3	0xbd290796	-0.041267
4	0xbcdb372f	-0.026759712
5	0x3c8b8a07	0.01703359
6	0xbcb83d10	-0.022490054
7	0xbd6369e3	-0.055520903
8	0x3d167c15	0.036739428
9	0x3bf096d0	0.007342197
10	0x3d36559d	0.04451524
11	0xbda95b00	-0.0826931
12	0x3c41330c	0.011791956
13	0x3db722fe	0.08942221
14	0x3d4b2549	0.049596105
15	0xbc8064e1	-0.015673103
16	0x3aecfe85	0.0018081224
17	0x3bc70166	0.0060731648
18	0x3c995266	0.018716048
19	0xbb9051c2	-0.0044042775

transformer_encoder.layers.1.self_attn.in_proj_weight f4 [60, 20]
0	0x3e196ff1	0.14984109
1	0xbe5ea9c8	-0.21744454
2	0xbe4c44ce	-0.19948122
3	0x3e1ccab5	0.15311702
4	0xbd37f098	-0.044907182
5	0x3e8a8c8b	0.2706035
6	0xbd964aa4	-0.07338455
7	0xbda97bf1	-0.08275593
8	0xbca13b79	-0.01968168
9	0x3dc0cc07	0.09413915
10	0xbd1f072b	-0.038825195
11	0x3d3f40fa	0.046692826
12	0xb912a371	-0.00013984532
13	0x3e335ac2	0.1751509
14	0x3e2828c6	0.16421804
15	0xbe18de7e	-0.14928624
16	0x3e56b28d	0.20966549
17	0x3e3136fc	0.17306131
18	0xbe4778bf	-0.19479655
19	0x3e04318d	0.12909527
20	0x3d70d206	0.058794044
21	0xbd8fcd88	-0.07021624
22	0xbd7548f7	-0.059884038
23	0xbd8a58e1	-0.067552336
24	0xbc4838c0	-0.0122205615
25	0xbe14e65f	-0.14541005
26	0xbe46d4f6	-0.19417176
27	0x3ccfaa10	0.025349647
28	0xbd0dc12d	-0.034608055
29	0x3e82419c	0.2544068
30	0xbe7405c8	-0.2383033
31	0x3deac402	0.11463167
32	0xbcd3e6ae	-0.025866833
33	0x3e09ed8f	0.13469528
34	0x3e1d474f	0.15359233
35	0xbdcfc790	-0.101454854
36	0x3e6a7c4a	0.22898975
37	0x3d8495d8	0.06473893
38	0x3e1866b7	0.14882933
39	0xbd900430	-0.07032049
40	0xbd13cf90	-0.03608662
41	0xbd92dd34	-0.071710974
42	0xbe44f21a	-0.1923298
43	0xbc44549a	-0.011983061
44	0xbe50f8ff	-0.20407484
45	0xbdfd2256	-0.12360065
46	0x3de457b3	0.1114954
47	0xbe237486	-0.15962419
48	0xbe4f9a4b	-0.20273702
49	0x3e258758	0.16164911
50	0xbe493006	-0.19647226
51	0xbd77e95a	-0.060525276
52	0x3e33a5aa	0.17543665
53	0x3e87aee8	0.2650063
54	0xbde28ecb	-0.11062392
55	0xbe424a5a	-0.18973675
56	0x3e889667	0.26677248
57	0x3d792f89	0.06083635
58	0xbdbff74a	-0.093733385
59	0x3cc66dd9	0.024222301
60	0xbe47e74b	-0.19521825
61	0x3d5bcfac	0.05366485
62	0xbd173a5b	-0.036920886
63	0xbe6dae55	-0.23211034
64	0x3e26d7d9	0.16293277
65	0x3da49dab	0.08037885
66	0x3e4c35c7	0.1994239
67	0x3e86588c	0.2623943
68	0x3e8cd378	0.27505088
69	0xbe4834ba	-0.19551364
70	0x3d9f4107	0.07776075
71	0xbe7c20ee	-0.24621937
72	0xbe2da374	-0.16956884
73	0xbdb3ceda	-0.08779688
74	0x3e519d61	0.20470192
75	0x3e212884	0.15738112
76	0x3c915c33	0.01774416
77	0xbe30c33b	-0.17261975
78	0xbd98dd20	-0.07464051
79	0x3d596a49	0.053079877
80	0xbd991694	-0.074750096
81	0xbe8a63ac	-0.2702917
82	0x3da2c134	0.07947007
83	0x3bc139e4	0.0058967937
84	0x3d3bb058	0.04582247
85	0x3dffa576	0.12482731
86	0x3e5b3d0e	0.2141001
87	0x3dc3ca66	0.09560089
88	0xbe264fb1	-0.16241337
89	0x3d7e2084	0.062042728
90	0x3d0556ce	0.032553487
91	0xbd917088	-0.07101542
92	0x3e83dd7e	0.25754923
93	0x3d2ff8e0	0.042961955
94	0x3e8f3407	0.2796938
95	0x3c941cd6	0.018080156
96	0x3dd555e9	0.10416777
97	0x3db05d66	0.08611564
98	0xbcf56b26	-0.029958319
99	0x3e88dcaf	0.26730868
100	0x3ce00f1b	0.027350953
101	0x3e538cdf	0.20659207
102	0xbe429d56	-0.19005331
103	0x3e8601b8	0.26173186
104	0x3e010862	0.12600854
105	0xbe5be420	-0.21473742
106	0x3e5a1037	0.21295248
107	0xbae90122	-0.0017776827
108	0xbd8f9f1d	-0.0701277
109	0xbe265104	-0.16241843
110	0x3cc05de7	0.023482276
111	0x3d973679	0.07383437
112	0x3e298200	0.16553497
113	0xbe6b9ca5	-0.23008974
114	0x3e4206b0	0.18947864
115	0xbc70e4f9	-0.014703029
116	0xbe76f215	-0.24115784
117	0xbc575063	-0.013141724
118	0xbe47e8ae	-0.19522354
119	0xbe858097	-0.2607467
120	0x3e1b583d	0.15170379
121	0xbd7d833b	-0.06189273
122	0x3e806510	0.25077105
123	0x3d87083a	0.06593366
124	0xbe43b9df	-0.19113873
125	0xbdcccc6b	-0.09999927
126	0xbe49a7fb	-0.19692986
127	0x3e6bf8c1	0.23044111
128	0xbe139dfb	-0.14415734
129	0x3e553e37	0.20824514
130	0xbdf63128	-0.120210946
131	0x3e3105c1	0.17287351
132	0x3e471954	0.19443256
133	0x3e35ea36	0.17765126
134	0x3e78c2ca	0.24293056
135	0x3e2a42fe	0.16627118
136	0xbd3d5e46	-0.046232484
137	0x3e89491a	0.26813585
138	0xbd643f20	-0.055724263
139	0x3e8188e8	0.25299764
140	0x3d057dbe	0.03259062
141	0x3e5085d4	0.20363551
142	0x3c92846a	0.017885406
143	0x3e652702	0.22378162
144	0x3d8fc1e3	0.07019403
145	0x3d474ad3	0.048655342
146	0x3e0dfd77	0.1386622
147	0x3e0a39f8	0.13498676
148	0xbdc4b621	-0.09605051
149	0x3e0108eb	0.12601058
150	0x3e0b61fc	0.13611597
151	0x3e788a63	0.2427154
152	0x3e62d21e	0.22150466
153	0xbe648360	-0.2231574
154	0x3d59e685	0.053198356
155	0x3ad7f2f1	0.00164756
156	0x3d805ff2	0.062683
157	0x3e8aca47	0.2710745
158	0x3e4ef3fc	0.2021026
159	0xbe16855e	-0.14699313
160	0x3d45a2d8	0.048251003
161	0xbdf3a5ba	-0.11896844
162	0xbb456986	-0.0030122711
163	0xbc1e7f47	-0.0096739
164	0xbcf00f9c	-0.029304318
165	0x3e6b34ce	0.22969362
166	0xbe80aa5a	-0.25129968
167	0x3e400648	0.18752396
168	0x3df031af	0.117282264
169	0xbe404d3e	-0.18779466
170	0x3e799f92	0.24377277
171	0xbe7d3d81	-0.24730493
172	0xbe05b8cb	-0.13058774
173	0x3e6ec5b1	0.23317601
174	0x3de1ac81	0.11019231
175	0xbe4ef608	-0.20211041
176	0x3da9a60b	0.08283623
177	0x3d884599	0.066539
178	0x3c8be573	0.017077183
179	0xbd2fbf83	-0.04290725
180	0xbe1b49bd	-0.15164848
181	0xbe1f8f49	-0.15582003
182	0x3cf2c416	0.029634517
183	0x3e59f694	0.21285468
184	0xbd292f3c	-0.04130481
185	0x3dfe0987	0.12404161
186	0x3e0299ad	0.12753935
187	0x3e807e6f	0.2509646
188	0xbe20f8f8	-0.15719974
189	0x3e33dac7	0.17563926
190	0x3e072baf	0.13200258
191	0x3d9ff354	0.07810083
192	0xbe234cc1	-0.15947248
193	0xbd9c647a	-0.07636352
194	0x3d7f8dc3	0.062391054
195	0x3e21ff08	0.15819943
196	0xbe8cf9a7	-0.2753422
197	0xbb3d0002	-0.0028839116
198	0xbcad68b6	-0.021168094
199	0xbe0de9d2	-0.13858727
200	0xbde88522	-0.11353518
201	0x3e236f5e	0.15960452
202	0x3d5e4750	0.054267228
203	0xbd0ef6c9	-0.03490332
204	0xbd64c16a	-0.055848517
205	0x3d6f0ab3	0.058359813
206	0xbd886b44	-0.06661084
207	0x3ba963d4	0.005169371
208	0x3e7a3105	0.24432762
209	0x3e3bf75d	0.1835608
210	0x3da7d5b8	0.081950605
211	0x3e8210ec	0.25403535
212	0x3e1d4f7d	0.15362354
213	0x3e9b7b47	0.3036749
214	0x3d073311	0.033007685
215	0x3dc904cc	0.09815368
216	0xbd1415b4	-0.03615351
217	0xbd7deb58	-0.06199202
218	0xbd856519	-0.065134235
219	0x3e7efae5	0.24900396
220	0xbd7abc51	-0.06121475
221	0x3dcf34f9	0.101175256
222	0xbe6fb371	-0.23408295
223	0x3e40e403	0.1883698
224	0x3dc244a6	0.0948575
225	0x3e4275a6	0.18990192
226	0x3d77e020	0.060516477
227	0xbdb20ed2	-0.08694233
228	0xba6be0c3	-0.00089980307
229	0xbe755258	-0.23957193
230	0x3cee45cb	0.029086014
231	0x3e846571	0.25858644
232	0xbd1d9542	-0.03847242
233	0x3c07f8d6	0.008299073
234	0xbd84951c	-0.06473753
235	0x3d703a47	0.058649328
236	0xbdf1e2d7	-0.118108444
237	0x3de9f159	0.114229865
238	0x3df0ffaa	0.11767514
239	0xbe36611a	-0.17810479
240	0xbe4c4d5d	-0.19951387
241	0xbc8caa1c	-0.017170958
242	0x3e6bbad4	0.23020488
243	0x3dace773	0.08442583
244	0x3e52584f	0.205415
245	0x3e05dd18	0.13072622
246	0xbe11287a	-0.14175597
247	0x3e445805	0.19174202
248	0xbd7d8ea9	-0.06190363
249	0xbdf578ca	-0.11985929
250	0x3e53f0d4	0.20697337
251	0x3e8a1ceb	0.26975188
252	0xbe762ca7	-0.24040471
253	0x3e16a5c0	0.14711666
254	0xbe0afd62	-0.1357322
255	0x3e870d63	0.263774

transformer_encoder.layers.1.self_attn.in_proj_bias f4 [60]
0	0x3b8fdfed	0.0043907077
1	0x3a8ef3b2	0.0010906367
2	0x3c74ac48	0.014933653
3	0x3c18658f	0.009301557
4	0x3bc854c1	0.006113619
5	0xbb905ddc	-0.00440572
6	0xbb581e13	-0.003297691
7	0xbb4b94e5	-0.003106409
8	0x3b01b8b1	0.0019793923
9	0xbb97bc12	-0.004630574
10	0xbbf33898	-0.007422518
11	0x3c1f3272	0.009716617
12	0xbb6c7ee5	-0.0036086377
13	0x3c8148cc	0.015781783
14	0xbc04bcf3	-0.00810169
15	0xbad3706f	-0.001613153
16	0xbc30c169	-0.0107883
17	0x3c13d02d	0.009021801
18	0x3b8a1aec	0.004214635
19	0xbb71537e	-0.0036823447
20	0x2ed2b311	9.581503e-11
21	0xae936da9	-6.7042656e-11
22	0x2f7829fd	2.2570386e-10
23	0x2e7db3e1	5.7685304e-11
24	0x2e99f7b0	7.0016326e-11
25	0x2e481e28	4.550152e-11
26	0x2e8fef17	6.545358e-11
27	0x2d285221	9.567931e-12
28	0xad1d8af1	-8.955268e-12
29	0x2f8c638d	2.5536587e-10
30	0x2e7900e4	5.6616836e-11
31	0xafae89be	-3.1748287e-10
32	0xafaa4f5a	-3.0979203e-10
33	0xaf0ab33f	-1.2614708e-10
34	0xae9288d5	-6.6636176e-11
35	0x2f915b5f	2.644027e-10
36	0xaf0011ae	-1.1647813e-10
37	0x2ee328a5	1.0329985e-10
38	0x2f98d5b4	2.7800484e-10
39	0xafc54d31	-3.588894e-10
40	0x3c96435e	0.01834267
41	0xbc581794	-0.013189215
42	0x3b9b55ef	0.0047404687
43	0x3d03071d	0.031989206
44	0xbc8d27e3	-0.017230934
45	0xbb86696c	-0.0041019227
46	0x3c8472b2	0.016167972
47	0x3c2791b9	0.010227614
48	0xbc9bd62b	-0.019023022
49	0xbcc10686	-0.02356268
50	0xbbb23c9d	-0.0054393546
51	0xbb7b27ac	-0.0038323207
52	0x3c4c7893	0.012479919
53	0xba4094a6	-0.0007346369
54	0x3c8f4bf8	0.01749228
55	0xbcc3ad70	-0.023886412
56	0x3c52d78c	0.012868773
57	0xba9e1736	-0.0012061361
58	0xbbdea3b5	-0.0067944177
59	0xbc75a63b	-0.014993246
